skab_cnn_lstm_best_select_ops.tflite (tflite, 348592 bytes, 6 tensors)

arith.constant f4 [32]
00000000: 6cf4 43bd 757c 07bc ab49 163a dc00 01bb
00000010: 9a7e 35bd 278b a63c b41c 78bc 0a17 9abb
00000020: 232f fdbc 164e 56bd 23eb 3d3b a0f4 dfbc
00000030: c878 2ebc 4c9d 883c 6a69 45bd 8f38 89bc
00000040: 3a8d 31bd 4fe7 81bc 3430 e03a 0f77 1abd
00000050: 0afc b93a 3c3e 6a3c a852 fbbc 4109 1abd
00000060: bdbb 25bd 73de 4dbd ca84 e1bc d1a4 8f3b
00000070: 819c 673c f20b 57bd bf51 6a3c 3e15 94bc
-0.04784052 -0.008269419 0.0005733023 -0.001968435 -0.04431019 0.020330025 -0.015143562 -0.0047024535
-0.030906266 -0.052320562 0.0028979264 -0.027338326 -0.010648914 0.016676567 -0.048196234 -0.016750602
-0.043347575 -0.015857367 0.0017104209 -0.0377112 0.0014189493 0.014297064 -0.030679062 -0.03760648
-0.040462244 -0.050260972 -0.02752914 0.0043836613 0.0141364345 -0.052501626 0.014301716 -0.018076535

arith.constant6 f4 [32, 1, 5, 8]
00000000: da69 7c3d a56f 813d a366 5e3e 32d0 49be
00000010: 5813 7bbd 4533 0d3e 4bb6 df3d f2d4 bc3d
00000020: 090f e2bd 3386 1ebe c240 523d 2e05 50be
00000030: 4033 1bbe ec06 4a3e e6fe 9c3b a43f ea3d
00000040: 55ac 103d 9d88 023e 6b16 433e 93aa 2bbe
00000050: 62cc c9bd 6ecf 543e 8c6b 703a 7e12 9d3d
00000060: a89d 21be 985c d73a 9096 833e cd2b e43c
00000070: 29ea 0dbd 200b 01bc bfd9 8dbd 9b64 f4bd
00000080: 56b5 44bd 64cb 9a3b 9701 f13d fc4d 3fbd
00000090: 0537 87bc 01a6 053e af93 f63d b8f1 0bbe
000000a0: 4872 8c3d f49a 263e 087b f83d 759d 91bd
000000b0: 6622 983d 32f6 05be 6f18 83bd 716a 93bd
000000c0: 80bd acba a56e 1abe 1cde fb3d b8b8 9fbd
000000d0: 2c6b b53d c0b5 1fbd 8254 d7bd 9254 083e
000000e0: 5992 c43c 1f43 1abe e1b1 babd 0ef0 dabd
000000f0: bd9e cdbd c2bf 22ba ba6d 23be dac5 ecbd
00000100: 66b2 97bd 43b0 cabb 985b df3d 70b5 c8bd
00000110: 9d4d d0ba 1d8a 073e 16cc 96bd 0b82 f63d
00000120: eab8 7e3d 0e0e bdbd ec46 313e eb87 033e
00000130: 8829 02be 8efc 143d 47a4 c43c fc01 1dbd
00000140: c9db 83bd 7574 ebbd c9e1 383d 55d3 203e
00000150: 126d 693d efed 0f3e 198e 3d3d acfe 213e
00000160: 4a36 3cbe 05db 103e 3855 a4bd cdf0 23bd
00000170: 4941 d8bd bcce 1cbe f3bc d5bd f427 46bd
00000180: 97ed dcbd c5f3 c73d b299 063f ee46 143d
00000190: 2a6a 36bd 5ecd 0dbd 0fb7 57be 0183 4a3d
000001a0: 4aab e23b dd6a b3bd 2ef1 a5bd 258e 953d
000001b0: b542 cb3d 5e4f d7bd d00e bebd 7424 ef3d
000001c0: 76b9 24be e966 6cbd 3ea2 083f 49a1 eabc
000001d0: a4f6 3ebe 5fd3 4f3d 1091 d5bd 6a81 493d
000001e0: 34b2 463e ecb2 fa3d 7a3f cc3c 186c a73d
000001f0: b5c5 f3bd 74e1 4d3e 72b3 55bd f01c dbbd
00000200: ab70 8abc 8f61 4d3e a43c 8abd 48b5 ed3d
00000210: e664 3c3c 4216 473d ac9c 83bd 9351 0fbe
00000220: 8a82 273e eeae 763e 4a39 903c e0e0 883d
00000230: 636f 8cbc 4fbe 033e f502 8f3d 67f4 09be
00000240: 0051 1b3e 09c8 aa3c d45d 093d 3b92 573c
00000250: 8fe3 2dbe 8598 a43d f844 cbbc ebb0 7bbd
00000260: e748 523e d22b a0bd 9ac6 45bd 5b61 18bd
00000270: d2e1 133d 67a3 0f3e c220 c5bd cad1 10be
00000280: e6ac e73d dffb a33d f4cb 14bd 714f f23c
00000290: a38a c9bc 937f ec3d 5039 313d 588f b23d
000002a0: f6a9 ddbd c5a9 03be 27f1 953d b5f5 ef3d
000002b0: a5c8 4dbd 761a d23d 4494 89bd bf59 18be
000002c0: 3612 e4bb 2510 263d 83ef 33bd ee10 be3c
000002d0: 712a c4bd 9cc4 fc3d 17c7 203d db35 183e
000002e0: a638 f63d a199 64bd 07da e93d 2d3d 3abe
000002f0: 55b1 47be 9b8c 6e3d 4c70 5e3d 83d4 c3bc
00000300: eae7 143d ad8d e53d 278c 353e 3072 8ebd
00000310: ddbc b6bd a478 243e ab8a 71bd 232a c1bd
00000320: 3fd5 9bbd 7cb0 71be a00e 4ebe 9d7d 47be
00000330: f056 36bd 4752 fbbd f374 37be 595b 2bbe
00000340: 7dbc 64be 8bac 6bbd 3f5c b3bd c5f2 01be
00000350: ce6f 15be 9e3a 0f3d 4c38 48be 52e4 03be
00000360: 2a90 493e 44b7 ea3d 5942 a13c 3d0a 31bd
00000370: 07e1 1cbe ac4c 1a3e e666 243e 5bee 46be
00000380: cd72 213e 1acc 843e 1a14 39be a48f ffbd
00000390: d935 2c3d 7c4a 03bd bdca d5bc ddc7 e4bd
000003a0: c206 7e3d 596f 7b3e 120e 863d dc26 a63d
000003b0: 904e e2bc ee45 9ebd 5279 cd3d 329a eebc
000003c0: 6954 1d3e d0a8 173d 42df a4bd 02fe 1cbe
000003d0: 008a a6bd 5dd1 b4bd bc6a dd3c a3c5 833d
000003e0: 9647 e3bc ee6f f33d 1dd0 fb3d c1bf 2dbe
000003f0: 2ea1 613d 6300 063e 0507 5bbd 6a69 d5bc
0.061624385 0.06320123 0.2171884 -0.19708326 -0.061297745 0.13789089 0.109234415 0.092203036
-0.11038024 -0.1548088 0.05133129 -0.20314476 -0.15156269 0.19729203 0.0047911284 0.1143792
0.0353206 0.12747426 0.1905152 -0.16764288 -0.09853436 0.20782253 0.0009171299 0.07669543
-0.15782797 0.0016430793 0.25700808 0.027852917 -0.03464714 -0.007876188 -0.069262974 -0.119332515
-0.048024498 0.004723953 0.11767881 -0.04670523 -0.016505728 0.13051607 0.12039887 -0.13666427
0.06857735 0.16270047 0.12132841 -0.07110111 0.07428436 -0.13082197 -0.06401145 -0.071980365
-0.0013179034 -0.1508127 0.122982234 -0.07798904 0.08858332 -0.03899169 -0.105141655 0.13313511
0.023995565 -0.15064667 -0.09115959 -0.10690318 -0.100400425 -0.0006208384 -0.15959826 -0.11561175
-0.07407074 -0.006185563 0.10906142 -0.098002315 -0.0015892271 0.1323628 -0.07363145 0.120365225
0.062188067 -0.09231196 0.17312211 0.12844817 -0.12711155 0.036373667 0.024004115 -0.03833197
-0.06438405 -0.11496822 0.0451372 0.15705617 0.056988783 0.14055608 0.046278093 0.15819806
-0.18380085 0.1414605 -0.08024067 -0.040024567 -0.10559327 -0.15313238 -0.1043643 -0.048377946
-0.10787504 0.09763292 0.5257827 0.036200456 -0.04453484 -0.03461968 -0.21065925 0.04944134
0.006917392 -0.08760617 -0.08102642 0.073025025 0.09924833 -0.10513185 -0.09280169 0.11676875
-0.16086373 -0.05771533 0.5337256 -0.02864136 -0.18648773 0.05073869 -0.10428059 0.049195684
0.19403917 0.12241158 0.024932612 0.08174914 -0.11902944 0.20105535 -0.052173086 -0.10698879
-0.016899427 0.20056747 -0.067498475 0.11606842 0.011498665 0.04860521 -0.06426367 -0.13995962
0.1635839 0.24090168 0.017605443 0.066835165 -0.017142957 0.12865566 0.06982986 -0.13472138
0.15167618 0.020847337 0.033536747 0.013157423 -0.16981338 0.08036903 -0.02481316 -0.06144802
0.20535623 -0.07820858 -0.048285104 -0.03720222 0.03610403 0.14027177 -0.09625389 -0.14142528
0.11312275 0.08007025 -0.036327317 0.029578896 -0.02460224 0.1154777 0.043267548 0.08718747
-0.10823433 -0.1285773 0.07321387 0.11716787 -0.050240178 0.10258953 -0.067177325 -0.14877985
-0.0069601787 0.04054274 -0.043929588 0.023201432 -0.095784076 0.12342188 0.039252367 0.14864294
0.120225236 -0.055810574 0.114185385 -0.18187399 -0.1950124 0.05823956 0.054306313 -0.023905044
0.036353983 0.11208663 0.17729245 -0.06955373 -0.089227416 0.16061646 -0.058970135 -0.09431865
-0.07609033 -0.2360248 -0.20122766 -0.19481511 -0.044516504 -0.122715525 -0.17915706 -0.16734065
-0.22337528 -0.057537597 -0.08757829 -0.12690265 -0.14593431 0.03496801 -0.19552726 -0.12880066
0.196839 0.114607364 0.019684957 -0.043222655 -0.15320216 0.1506831 0.16054878 -0.19426863
0.1576645 0.25936967 -0.18074074 -0.12478569 0.04204354 -0.032053456 -0.02609765 -0.111709334
0.062018164 0.24554195 0.065456524 0.081128806 -0.027625352 -0.07728182 0.10032906 -0.02912626
0.15364231 0.037026227 -0.080503955 -0.15331271 -0.0813179 -0.088289954 0.027028434 0.064341806
-0.027744096 0.11886583 0.12295554 -0.1696768 0.055085354 0.13086085 -0.05347349 -0.026051242

arith.constant7 f4 [1, 128]
00000000: 22da 57be 06b7 e7be 20a0 b63e 751f 08be
00000010: e35e 7ebe cf5f a03e 60e7 4fbd d286 183f
00000020: 9513 04be 6472 ef3e ca4a eabd 7579 b1be
00000030: 28ce 00be 8be3 9cbe 6712 213e 1855 963c
00000040: af8f c73e b3dc e7bd 653d 76bd 394a 90be
00000050: f533 a0be 18d9 b6bc 1348 983e 89f8 85bc
00000060: 16a2 7ebe 9861 ae3e e409 b73e b469 c6be
00000070: 5552 953e 5c52 88bb ab47 b83b 29d1 e23d
00000080: a783 b6be 841a 8bbe 08b5 a5be fcd1 0d3e
00000090: 7f57 c03e 0cf2 e23e 060f 9f3e 5a56 bdbe
000000a0: 9a68 6abd 5c49 b13e 8b9c 79bc 8731 5a3e
000000b0: 1f81 af3e 394d 76be c3cf 86be 282c 533e
000000c0: 485d 803e cf69 003f 7b0f 073f c3d2 33bd
000000d0: 7f51 983d 8121 6a3e 0df7 d13e 45aa 9f3e
000000e0: 7c64 933e 32a9 7a3e 6fbd 99be 1e4b a53e
000000f0: 5846 be3e 4afd 633d 7a65 c13d 5cdd 2bbe
00000100: 646c 933e d48c e6be 0d11 54be f326 82be
00000110: f9c0 61be 0235 593e df1f 42be 6718 a43e
00000120: 8844 713e 190e 58be 76ca d43e 1730 9bbe
00000130: 607e 253e ac5a 893c bf22 8f3e cf1e 6ebe
00000140: e48b c33d 04db e23e db40 57be cdec 1e3d
00000150: fc57 91be 1142 dd3e 1690 1cbf d1be e43d
00000160: 5d70 823e cdfb 4e3e e466 693e a402 e03e
00000170: 0522 d83e eb97 b13e 930a 973e 9570 b63e
00000180: d06c dc3e 144d a53e 8d7a c83e 4b08 02be
00000190: 0e9d 063e 1cab 0dbe f22b d43e a24b 3b3d
000001a0: 6246 8ebd 11fa bbbc f4ab d33e cad4 ae3e
000001b0: cbfa 853e 26ef 7cbd 4e1b 65be bafa a7bd
000001c0: ab47 a63e 4f79 473e 8456 b8be dd04 d43d
000001d0: 04ac 48be acfa bebe b328 513e 7440 2a3e
000001e0: 2ebc c83e b1ab e13b 1f75 cabe 4c62 c13d
000001f0: 745e aebd bbb2 843d 557d 6a3e 3a12 cabe
-0.21079305 -0.45256823 0.3566904 -0.1329325 -0.24840884 0.31323096 -0.050757766 0.5958072
-0.12898095 0.4676696 -0.11440046 -0.34662977 -0.12578642 -0.30642352 0.15729676 0.018351123
0.3897681 -0.11321392 -0.060117144 -0.28181627 -0.3128964 -0.022320315 0.29742488 -0.016353862
-0.24866518 0.34058833 0.35749733 -0.3875252 0.29164377 -0.0041602086 0.005623778 0.110750504
-0.35647318 -0.27168667 -0.32364678 0.13849634 0.37566754 0.44325292 0.3106615 -0.36979944
-0.057228662 0.3462628 -0.015235077 0.21307956 0.342782 -0.24052896 -0.26330385 0.20622313
0.25071168 0.5016145 0.52757996 -0.04390217 0.07437419 0.22864343 0.41008797 0.31184593
0.287876 0.24478605 -0.3002734 0.32283872 0.37163043 0.055661477 0.09443183 -0.1678366
0.28793633 -0.45029318 -0.2070963 -0.2542034 -0.2204627 0.21211627 -0.1895747 0.32049868
0.23561299 -0.21099128 0.41560715 -0.30310127 0.1616149 0.016766869 0.27956197 -0.2325394
0.095481664 0.4430772 -0.21020834 0.03880005 -0.2838744 0.43214467 -0.6115736 0.11169208
0.2547635 0.20213242 0.22793156 0.43752015 0.42213455 0.34686217 0.29500255 0.35632768
0.43051767 0.32285368 0.39156 -0.12698476 0.13145849 -0.13834804 0.41439778 0.045726426
-0.06947018 -0.02294639 0.41342127 0.3414672 0.26167902 -0.061751507 -0.22373697 -0.08202119
0.32476553 0.1947987 -0.36003506 0.1035249 -0.19596869 -0.37300622 0.20425682 0.1662615
0.3920607 0.0068869223 -0.3954248 0.09442577 -0.08514109 0.06479403 0.22899373 -0.3946703

arith.constant21 f4 [512, 32]
00000000: 370f 05bd 0b66 18bc 249f 10bd a6ef 4fbe
00000010: 3898 9cbd 34ca bbbd 5a5e ccbd bf75 dbbd
00000020: 848d 9bbb 3cfb 443d fa61 0c3f 127f 88bd
00000030: e2d8 0b3d ea18 f7bd 8a1c ec3c 1386 debd
00000040: 68ae 21bd 8aeb 33bc b8ba 8a3c 7fa6 d7bc
00000050: 091d d6bb c114 4bbd 74bf 3a3e 1fa5 6c3d
00000060: aa64 2a3d 1368 41bc cf6c 3ebd 2b01 ee3b
00000070: 95fa 38bb ed1f 65bd 3f9b c4bc 207a d13d
00000080: dab1 47bd 2ca6 d6bd c6c6 933d 90dc 1cbe
00000090: 95b0 4cbc dbfe d7bd 8d7f 9dbd d2b9 7dbe
000000a0: 43f6 d73c adc3 11be 27a6 fb3e b0b3 153d
000000b0: 6673 48be 1e29 083d 9c97 07be b4ac 32be
000000c0: e24c d4bc e0c4 90bc ff8e 0cbe 1aa5 85bd
000000d0: ba47 543d 71ae 90be 603a c8bc 2a76 113d
000000e0: 17f3 a03d 6485 09be 08f3 19be 5623 49bc
000000f0: b3ff 9cbc c4ac 76bd d884 993c 5686 893d
00000100: 438f a93d c527 b33d bfbf 93be ea27 18be
00000110: 42e1 633d 52bc ee3d 6de4 30be cac1 80bb
00000120: 49d0 c43d c97e a5bd 0d6e e13d fdcc dd3b
00000130: 1a90 38bd e477 b3be c706 6f3d c77e 083e
00000140: 6149 c63d ff85 283c 3b06 19be 1c61 c93d
00000150: ddf3 9c3d ded5 a6bc 3887 683e 299a e8bd
00000160: c8ab dfbd 6a97 a93d 4948 d4bc 676c 873c
00000170: 015c 54be 8550 dcbd c14a 293e 2145 7ebb
00000180: af90 a4bd 305c 393d 2c8d 2b3e 1aae 97bd
00000190: 2da5 83be d078 82bd ee99 cfbd 7485 de3d
000001a0: eee0 bbbd a75d 07be 0979 09bd 3e48 393d
000001b0: 94d3 63bd ba45 173e 5a7c babd 57b9 e1bc
000001c0: e52d 0bbc bdc2 e93c 7b06 44bd 658e ec3d
000001d0: 6536 8ebe b1f0 233c 6102 85be 2cba 81bc
000001e0: f38b f8bc a856 2abe 88da 70bd 61b2 fd3a
000001f0: 077e a13d 0bf5 973c 864e 9e3d f03f 19bd
00000200: b916 16be f049 b63d fec2 fabc 6fd3 3dbe
00000210: bb69 2bbd 7055 283d a901 00be 892c edbd
00000220: 80b9 89bc cf88 82bd 80c9 2a3f 78cc 033e
00000230: 3e79 21be 4913 cd3b 6a72 023c a242 c2bd
00000240: 9c1f 8d3d 84d3 7a3c cd19 6abd 1617 c1bd
00000250: 10ac fb3d ad74 17bc 28a1 68bd e373 95bc
00000260: 06fe e5bc 4541 c0bb 6f44 34bc 5c25 f2bd
00000270: 3fb4 223e 2ae0 3b3d 84fc 62bd 9509 3abd
00000280: 1abf 84bc 9432 603c 88c5 243e 07dc d2bd
00000290: c175 8a3d d48c c7bd 0bf2 d9bc 6fc8 37be
000002a0: 4690 c6bd edd4 5c3c 0243 053f a03b ab3d
000002b0: 23d7 febd e491 93bd 891d aebd b8d8 dcbd
000002c0: 81df a93c cddb aa3a a172 e33a a3b7 633d
000002d0: e394 67bd f82c 0cbe 0ef2 b6bd a2a2 1ebc
000002e0: dedd c23d 18a8 3dbc f5f4 983d 9f12 143e
000002f0: 8632 f83c f009 983d f585 f13b d685 25bc
00000300: a37e dabd d2ea b9bd 0422 563e 3502 0cbe
00000310: 7260 b2bd 298c 0d3e 72a1 35be 5191 6bbe
00000320: 1102 133d 3e10 a6bd fb91 de3e 6cf5 4c3d
00000330: f84f 02be 0f13 bebc ab4e 79bd 2677 99be
00000340: f919 3c3e 4dda cfbd be31 9e3d 6c95 56bd
00000350: e3ff 873c 3d3b b0bd 8208 b5bd 051e d0bd
00000360: 6217 2f3d 1a65 363d b52e 13be 9126 10be
00000370: 37c9 efbb b997 1bbd 11fc 93bd 3207 0ebc
00000380: f2f7 6cbe a0d3 c43d 64d5 803d 1318 cb3b
00000390: 1c0b 0a3c 9e6c 97bd 6709 ba3c 2ed5 cabd
000003a0: 87eb 6fbd 4d21 16be 10d8 e13e 86a7 623d
000003b0: 737b 52be 1d8c b0bd 976c b23b 0c4f 85be
000003c0: a05e 783d 6072 82bb a794 2f3d d65c 643a
000003d0: 4a99 753e 5455 f3bd 15ac bb3e 2ab3 713d
000003e0: 3008 50bd bd25 a8bd 0d47 57bc 0d8e eebc
000003f0: 8dc7 cdbc 06bf 293c 7648 6dbd bbf8 bb3d
-0.032485213 -0.009301673 -0.03530802 -0.20306262 -0.07646221 -0.091694266 -0.09978934 -0.10715818
-0.0047470946 0.04809116 0.54837 -0.06664862 0.034142382 -0.12065299 0.028822202 -0.108654164
-0.039472967 -0.01098145 0.016934738 -0.026324509 -0.006534223 -0.04958034 0.18237096 0.05777466
0.041599907 -0.011804598 -0.046490487 0.007263323 -0.002822553 -0.05593865 -0.023999808 0.102283716
-0.048753597 -0.104809135 0.072156474 -0.15318513 -0.012493272 -0.10546657 -0.07690344 -0.24777916
0.026362544 -0.142348 0.49150202 0.036548316 -0.19575271 0.033242337 -0.13241428 -0.17448694
-0.025915567 -0.017672002 -0.13726424 -0.06525631 0.051826216 -0.28258088 -0.024441898 0.03551308
0.07858866 -0.1342979 -0.15034115 -0.012276491 -0.019164896 -0.060223356 0.018740103 0.06715076
0.08279278 0.0874782 -0.28857228 -0.14858976 0.055634744 0.11657013 -0.17274638 -0.0039293515
0.0961004 -0.08080823 0.11007319 0.0067688213 -0.0450593 -0.35052407 0.058356073 0.13329612
0.09681965 0.010285853 -0.14943783 0.09832975 0.07663701 -0.020365652 0.22707832 -0.11357529
-0.109214365 0.08280833 -0.025913374 0.016531182 -0.20738222 -0.107575454 0.16532423 -0.0038798528
-0.08035409 0.045253932 0.16753072 -0.07406254 -0.25711957 -0.063706994 -0.10136782 0.10865298
-0.09173761 -0.1321932 -0.033562694 0.04523491 -0.0556217 0.14772692 -0.091057494 -0.027554197
-0.008494829 0.028535241 -0.047857743 0.11550597 -0.27775875 0.010006116 -0.25978377 -0.015835844
-0.03034017 -0.16634619 -0.058802158 0.0019355529 0.07885366 0.018549463 0.07729821 -0.03741449
-0.14657106 0.08900821 -0.030610558 -0.18537687 -0.04184888 0.041097105 -0.12500633 -0.1158076
-0.016812086 -0.063737504 0.66713715 0.12870967 -0.15768906 0.0062584025 0.007961849 -0.094853655
0.06890795 0.015309218 -0.05715351 -0.094282314 0.12288678 -0.009244126 -0.056794316 -0.018243736
-0.02807523 -0.0058671557 -0.011002644 -0.11823532 0.15889071 0.045868076 -0.0554166 -0.045419294
-0.016204406 0.013683934 0.16090977 -0.10295873 0.06760741 -0.09743658 -0.026604673 -0.17947553
-0.09695487 0.0134785 0.5205537 0.08360982 -0.12443378 -0.07205561 -0.08501727 -0.10783523
0.020736458 0.0013035476 0.0017352888 0.05559505 -0.056538474 -0.13689029 -0.08932887 -0.009682329
0.09514974 -0.011575721 0.07468597 0.14460228 0.030297529 0.074237704 0.0073707053 -0.01010271
-0.10668685 -0.090779915 0.20911413 -0.13672717 -0.08709802 0.13822998 -0.17737368 -0.23004653
0.035890643 -0.08108567 0.4347075 0.05003874 -0.12725818 -0.023202447 -0.06086604 -0.29973716
0.18369283 -0.101490594 0.07724331 -0.052388594 0.016601508 -0.08605049 -0.08839513 -0.10161976
0.04274691 0.04453001 -0.14373286 -0.14077212 -0.007317688 -0.03798649 -0.07225812 -0.008668708
-0.23141459 0.09610677 0.06290701 0.006197938 0.0084255 -0.07393764 0.022709562 -0.09903942
-0.058574226 -0.1466114 0.44110155 0.055335544 -0.20554905 -0.086204745 0.005445074 -0.2603687
0.060637116 -0.0039809197 0.042866375 0.00087113434 0.23984256 -0.118815094 0.36654726 0.059008755
-0.05078906 -0.08210323 -0.013139498 -0.02912047 -0.025119567 0.010360485 -0.057930432 0.09178301

arith.constant22 f4 [512, 128]
00000000: c696 3d3d abcc 5e3d 7061 113d 80b5 3e3e
00000010: 843c a6bc 2994 12bc 1ea1 843d d0d4 333d
00000020: 0e98 7ebb 9cc7 a7bd babc da3c eabf 2c3e
00000030: 16dc b13d 1a9c 363b f87b b63c 11f8 33be
00000040: 1504 40bd ebe5 6ebd f6b2 d73d a519 c23d
00000050: 35e4 83bd 4883 dc3b ab25 f43c 8bef b13e
00000060: bb14 063e c10e 89bd 7861 8f3d a5b9 bb3d
00000070: c07f ebbd c6a8 3ebe bf55 7cbc 47b3 d5bd
00000080: d6d6 2dbe 6abe 9bbd 2fbe f4bc 0d61 02bc
00000090: 863f 11be b554 773b c563 5cbe 9b42 423d
000000a0: 71d5 acbc f055 173e f3e3 efbd da4e 14bd
000000b0: 4de6 92bd 13b3 ed3b 92ed 743c dcfc 9a3c
000000c0: 93d7 c4bc 2c2f 5ebd b264 c63c dad1 03be
000000d0: a2e1 09be 22f7 88bd cd5c c4bd 225a 4cbb
000000e0: be6d dfbd 3d8b 07bd 3f5e ed3c 2dd2 65bb
000000f0: 0db6 8abd 0af1 b1bd a7c6 07be 0295 d03d
00000100: a06d 2c3c 9281 74bd 97e2 bc3c 9d39 313d
00000110: fc61 ca3c 54a7 ab3d 56d5 a23d 8f57 b2bd
00000120: a4f0 02be 3150 ccbd ad3d c53d 780f 813d
00000130: 35ff f0bd 6815 c63e 60f0 88bd b306 7e3d
00000140: de2d 473c 6daf 823d c9f4 913d 601b 9dbd
00000150: 3003 223e 0780 ca3c 1f82 51bc e19e 793d
00000160: 856a 123d c9b2 e9bd bfd0 0e3d f22e 17bd
00000170: cd4e 863c e71d bbbd 3412 59bd e4ba b5bc
00000180: 85e0 a6bd 47ec 05bd 9719 e3bb d222 88be
00000190: 19dd 2abe 0415 653e 0a67 843c 7822 ac3a
000001a0: 6c2d 85bb 70c7 a23d f129 b2bc 728e 33bd
000001b0: 052a 88bc 0f63 01be 11cb dc3d 71bd 23bd
000001c0: 6d52 f7bc 53f7 823d 527a 3c3c eaf6 653e
000001d0: 9a63 6cbc 9ec7 633d 1546 b6bc ae49 cb3d
000001e0: 3449 febc 8b00 a1bd 9cc0 9dbc cc3a f93d
000001f0: 1a41 d83d 69a1 a0bd 6497 93be 8062 333c
00000200: fa2e 9f3c 28ca 443d bd03 db3d a865 be3d
00000210: 4838 68bb dd19 403b 090c 2c3d cc2c 203d
00000220: 4bf0 2c3d f0eb b0bd 58b5 c7bd d2f5 b23c
00000230: e19a 803d 6cd0 38bb aecc b93c 711c e5bd
00000240: 4a64 8abc 99e5 c5bd a399 d63d c954 e63d
00000250: 2730 9c3d aa7b 963d 35d6 873a 7473 693d
00000260: b8f3 57bd aa0b 883d a2b1 5fbd f457 b5bc
00000270: 8571 ec3c 2a0c 09be 2824 e4bd 66b7 0d3d
00000280: 4957 e7bd d574 98bd 946a a33d 3e76 dbbd
00000290: 2461 6ebd 7eb7 9f3d b950 10bd 8b8a 463d
000002a0: 7255 a3bd ddb1 023e bdbf 0c3e da45 023d
000002b0: bbf7 23bd cb99 c9bc b910 d4bc c54d ca3d
000002c0: b05d b23b b775 503c 1e70 7f3d afb8 c2bd
000002d0: c318 b63a acd6 b2bc 1062 ebbd 6e5f 90bc
000002e0: 7b5b 9c3c 3f74 17bd 26e7 77bd 9cff 093d
000002f0: 4530 2ebb 96a8 aebd 54f0 8bbd f5a6 1d3a
00000300: 6fd3 433c 8f73 973d 05f0 7a3d 649f a2bd
00000310: fb30 b33c e13d 0c3c fa08 e03a 06a0 1fbc
00000320: 0de6 d1bd 7cc1 5abd efce 1f3e 3d83 863d
00000330: f535 8ebb 8468 003e c140 bebd c3bc 573d
00000340: b21c 3c3e e208 063e f383 943d 75ed f83d
00000350: 35f6 053d b5bd 52bd d701 8ebd f227 be3d
00000360: 8f5b 3e3e b518 a6bc dc50 173d d8b2 3d3c
00000370: 7ea3 933d 69cf 9e3d 6b11 3bbb 8847 523d
00000380: bf85 9e3d e1b7 933c d22d 9b3c 32f8 23be
00000390: 4197 a6bd 536d 3e3e 3532 103d c070 82bd
000003a0: a09f be3d 7a6c c7bd ba38 69bc 9acf d0bc
000003b0: e6af 9cbd ae21 9ebd 6a3d 883d 5b81 17be
000003c0: 8e0b 1d3c 6e25 0b3e ca1f c9bd 1292 463e
000003d0: 05ff 673d 2d95 6cbd c288 503d c303 093e
000003e0: c30f f3bd 6dfa a1bd 5934 24bd a6bc 5e3d
000003f0: 8cd6 adbd 25d4 293d 2985 553d 05f5 ffbc
0.046286367 0.054394405 0.035493314 0.18623924 -0.020292528 -0.008946457 0.06476043 0.043904126
-0.0038847956 -0.08192369 0.02670132 0.16870084 0.08684556 0.002786404 0.02227591 -0.17575099
-0.046878893 -0.058324736 0.10532181 0.094775476 -0.064400114 0.006729517 0.029803118 0.3475307
0.13093846 -0.06692267 0.070010126 0.09166268 -0.11498976 -0.1861907 -0.015401303 -0.10434585
-0.16976485 -0.07604678 -0.029875843 -0.007957709 -0.14184389 0.0037739698 -0.21522434 0.0474268
-0.02109787 0.14778876 -0.117134 -0.03620801 -0.07172833 0.0072540133 0.014949219 0.0189194
-0.024028575 -0.054244205 0.024217937 -0.12873021 -0.13464978 -0.06687762 -0.09588013 -0.0031181653
-0.109096035 -0.033091772 0.028975604 -0.0035067901 -0.06773005 -0.08688553 -0.13259374 0.10184671
0.0105241835 -0.05969388 0.023057265 0.043267835 0.024704926 0.08381525 0.07950847 -0.08708107
-0.1278711 -0.09976233 0.09630904 0.063017786 -0.11767427 0.38688207 -0.06686473 0.062018108
0.012156932 0.06381116 0.07126767 -0.07671237 0.15821528 0.024719251 -0.012787371 0.060942534
0.035746116 -0.11411054 0.034867045 -0.036910005 0.016394997 -0.09136563 -0.052995875 -0.022183843
-0.081482925 -0.032696035 -0.006930541 -0.26589066 -0.16685905 0.22371298 0.016162414 0.0013132831
-0.0040642526 0.07948196 -0.021748515 -0.04383702 -0.016621599 -0.12635444 0.10780919 -0.039975587
-0.03019067 0.063948296 0.011503773 0.22457471 -0.014428044 0.05561029 -0.022250215 0.09926163
-0.031040765 -0.07861432 -0.019256882 0.12169418 0.10559292 -0.078432865 -0.2882644 0.010948777
0.01943158 0.048044354 0.106940724 0.09296733 -0.0035433937 0.002931229 0.042003665 0.03910522
0.04222135 -0.086387515 -0.097513855 0.021845732 0.06279541 -0.00282004 0.022680607 -0.111870654
-0.016893525 -0.09662933 0.10478523 0.1124664 0.07626372 0.07347806 0.0010363521 0.05699487
-0.052722663 0.0664285 -0.054612763 -0.022136666 0.028862724 -0.13383546 -0.11139709 0.03459873
-0.11295945 -0.07444159 0.079793125 -0.10715912 -0.05819811 0.0779867 -0.035233233 0.04847197
-0.07975282 0.12763162 0.13745017 0.031804897 -0.040031176 -0.024609467 -0.02588688 0.098781146
0.0054432973 0.012723378 0.062362783 -0.09507882 0.0013892878 -0.02183088 -0.11493313 -0.01762363
0.01908659 -0.036976095 -0.060523175 0.033691034 -0.0026579064 -0.08528249 -0.06832948 0.0006013953
0.011952265 0.07395088 0.061264057 -0.079405576 0.021873942 0.008559675 0.0017092519 -0.009742742
-0.10248957 -0.053407177 0.15606283 0.065680005 -0.0043399283 0.1253987 -0.092896946 0.05267025
0.18370321 0.13089326 0.0725173 0.12154666 0.032705504 -0.05145045 -0.06933945 0.09284963
0.18589614 -0.020275453 0.036942348 0.011578284 0.07208918 0.07754404 -0.0028544317 0.05133775
0.07740354 0.018032016 0.018942747 -0.16012648 -0.08134318 0.18596391 0.03520413 -0.063691616
0.0930779 -0.09737487 -0.014234716 -0.025489617 -0.076507375 -0.07721268 0.06652339 -0.14795439
0.009585274 0.13588497 -0.098205164 0.19391659 0.05663969 -0.057759453 0.050911672 0.13380341
-0.11868241 -0.07909093 -0.040088985 0.054379128 -0.08488187 0.041462082 0.052128945 -0.031244764

sequential_10_1/lstm_10_1/while/lstm_cell_1/add_1/ReadVariableOp f4 [512]
00000000: 3eae 363b 6d91 d6bc e654 5cbd 4acd 06be
00000010: 46f1 cfbc 298d 26bc f728 96bd 61c7 a2bb
00000020: 8b2e 48be 8174 0a3d e9c3 fdbd 10d0 5437
00000030: 75f9 3ebc f044 14be 34f9 87bd 1827 60be
00000040: 6094 413d b2d2 24be 1104 e5bb b4ff f0bc
00000050: 213c 73bc 27f5 07be 08f5 83bd 288c 15be
00000060: 293d 9fbd c671 36be 027c 10be a249 d0bc
00000070: ac4e 53bd ab54 29be 8790 f9bd b9be aabd
00000080: 8ddb 9a3b 2b82 5bbd d041 29bd bd35 8abd
00000090: 2952 1d3c 6415 f5b9 6375 a4bd 6193 0dbc
000000a0: 2dc5 ab3a 38a7 e8bd 43e4 7dbd 950b 1abe
000000b0: 390a 95bd 50c6 94bc d2bd 1fbc ac7d 43be
000000c0: e3e8 ddbc 67f3 bc3b b695 b1bc 664b 44be
000000d0: 6713 46be 0ad7 8ebd 25df 373d 32c2 7abd
000000e0: fff4 73bd a9c7 1fbe f17e dbbc e5bc b8bd
000000f0: 3646 dbbd 44af 38bd a830 e4bd 60a1 92bc
00000100: 1900 2dbc 53ca 17bd 0ed1 8bbd 78a8 9abd
00000110: d96d dfbc 4675 fabd 1b8e 323c 1225 b2ba
00000120: fa6e 803c bc74 1fbd 57c6 f7bc 0ff6 a43c
00000130: 6f01 5dbe 57e7 72bd 804c 68bd 2c8b b9bc
00000140: db18 cbbb 2156 45bd 7444 573b 81c6 73bd
00000150: a37b efbd 8d0f fcbc d254 9a3c 3783 c4bd
00000160: cd10 4b3d 8aff d33b 2b60 4bbe 71dc 57bd
00000170: 2499 a3bc 1420 19be cae8 c2bc 1772 ebbd
00000180: 567f 51bb 3713 05be 8f93 1cbd 5551 cb3c
00000190: fd96 1abe 7f9f 0c3c dc4e 8a3c cdff 5abe
000001a0: 2f43 cfbd a888 8dbe c78e 80bd 233b 1fbd
000001b0: ac7f debc 3d74 efbd a0b2 1bbd 5e3a dabd
000001c0: cfb1 11bc de99 bfbd 215e 96bd 82bf 2abd
000001d0: 224d c63c ace9 2ebd d2c5 74be 75f0 f1bd
000001e0: 656a 41be cea5 efbd e898 2abd 9812 21bd
000001f0: 7bc9 bfbc bb99 fabc f871 a3bd b71d 1ebe
00000200: d582 833f c70d 7f3f 9470 703f e116 613f
00000210: 7e76 7e3f d0c6 803f d482 6b3f 6fd0 723f
00000220: f858 4e3f e8fa 853f be01 5d3f 3c7a 833f
00000230: d1a7 813f 97e8 5f3f 9faf 733f cd49 5c3f
00000240: e89d 873f e814 5b3f e610 853f 8d14 7f3f
00000250: 1114 813f cb3e 653f 26ab 703f 6d3d 633f
00000260: 68eb 703f ecba 583f 6c8a 4d3f 6dd1 723f
00000270: 4574 783f 75c1 6b3f 8674 6d3f 1143 713f
00000280: bc32 803f 5c8e 713f e422 703f 7109 733f
00000290: 39f6 833f 09c6 833f 503e 6c3f d55b 813f
000002a0: d94c 813f 6d17 733f 2c2d 713f c348 713f
000002b0: f86b 793f f2a2 803f 4da6 803f 007a 543f
000002c0: c587 7b3f 394f 7f3f 5333 7a3f 6499 5c3f
000002d0: b662 4e3f d291 6f3f a2f7 883f df9c 773f
000002e0: b7f2 783f 0c70 693f 5213 7d3f b00f 6a3f
000002f0: 3d26 4b3f 391c 7c3f 7abb 683f 0573 7f3f
00000300: 4922 823f ceb0 703f beef 5e3f 7125 753f
00000310: ba9b 7a3f 8323 6e3f e2c2 843f b803 833f
00000320: cbe5 833f 080f 743f f8d7 773f 19c0 843f
00000330: 2ce8 4c3f edb6 863f bb4b 813f 5272 803f
00000340: 517f 823f c801 7d3f 88af 813f b368 753f
00000350: 3e40 703f e41a 7e3f b0e6 5d3f 122e 6c3f
00000360: e6c6 8b3f 49b2 833f aa45 653f be8a 6f3f
00000370: a92d 823f a9f8 5c3f 9d37 7f3f 0328 6f3f
00000380: 43f6 823f a858 653f 1637 773f d8ed 8c3f
00000390: 0d91 6b3f b2e3 843f 7b5a 7f3f f2f7 5b3f
000003a0: 0315 6b3f b268 453f 9f9e 723f 868e 793f
000003b0: 2a7f 7d3f 0b3e 663f 05a4 7d3f e8e5 6f3f
000003c0: e025 823f 7f72 673f 7e05 743f 514f 793f
000003d0: 64b6 843f c661 7b3f 580b 633f 4bc0 6d3f
000003e0: a03e 5e3f 44ef 673f 3651 813f fe89 793f
000003f0: 5d1a 7c3f 0b9c 793f 8bc5 7d3f db47 623f
0.0027874853 -0.026192391 -0.053791903 -0.13164249 -0.025383603 -0.010165491 -0.07332032 -0.0049676155
-0.19549005 0.033802513 -0.123908825 1.2684628e-05 -0.011656155 -0.14479423 -0.066393286 -0.21889913
0.047260642 -0.16095999 -0.00698901 -0.029418804 -0.014845879 -0.13277112 -0.064432204 -0.14604247
-0.07775337 -0.17816839 -0.14109805 -0.025425736 -0.0515887 -0.16536205 -0.121857695 -0.08337159
0.0047258795 -0.053590935 -0.04132253 -0.06748531 0.009602108 -0.0004674598 -0.08030202 -0.008641095
0.0013105028 -0.113600194 -0.061985265 -0.1504348 -0.072773404 -0.018160969 -0.0097498465 -0.19090909
-0.027088588 0.0057663205 -0.021677833 -0.19169387 -0.19343339 -0.06974609 0.04489054 -0.061220355
-0.05955982 -0.15603508 -0.026793929 -0.09020404 -0.10706751 -0.04508902 -0.11142093 -0.017899215
-0.010559105 -0.037058186 -0.068269834 -0.07551664 -0.02727406 -0.122293994 0.010898138 -0.001359137
0.015677918 -0.038929686 -0.030245943 0.020136861 -0.21582578 -0.059302654 -0.05671358 -0.02264937
-0.0061980314 -0.048177842 0.0032847198 -0.05951548 -0.11693504 -0.030769134 0.018839274 -0.0959534
0.04957657 0.0064696716 -0.19860904 -0.052700464 -0.019970484 -0.14953643 -0.023792643 -0.1149637
-0.0031966767 -0.12995611 -0.03822666 0.024819056 -0.1509666 0.008582949 0.016883306 -0.21386643
-0.10120236 -0.27643323 -0.062772326 -0.038874757 -0.027160488 -0.116920926 -0.038012147 -0.10655664
-0.0088924905 -0.0935552 -0.073421724 -0.041686542 0.024206702 -0.042703316 -0.23903587 -0.11813442
-0.18888243 -0.117015466 -0.04164973 -0.039324373 -0.023411503 -0.030590883 -0.07980722 -0.15441023
1.0274302 0.996304 0.9392178 0.87925535 0.99399555 1.0060673 0.919965 0.94849294
0.80604506 1.0467196 0.86330783 1.0271678 1.0129339 0.8746428 0.9518985 0.8605011
1.0595064 0.85578775 1.0395782 0.99640733 1.0084249 0.8954894 0.9401115 0.88765603
0.941092 0.8466022 0.8028934 0.9485081 0.97052413 0.92092067 0.92755926 0.9424296
1.0015483 0.9435785 0.9380324 0.9493628 1.0309516 1.029481 0.9228258 1.010615
1.0101577 0.9495762 0.9420955 0.9425165 0.9743037 1.0049727 1.0050751 0.8299866
0.9825404 0.9973026 0.97734565 0.86171556 0.8061937 0.9358188 1.0700572 0.9672374
0.97245353 0.91186595 0.98857605 0.9143019 0.7935522 0.98480564 0.90911067 0.9978488
1.0166713 0.9401978 0.8708457 0.95760256 0.9789387 0.93022937 1.0371974 1.023551
1.0304502 0.95335436 0.9681392 1.0371124 0.80041766 1.0524575 1.0101236 1.0034888
1.0195104 0.9883084 1.0131693 0.95862883 0.93848026 0.9925978 0.86680126 0.922578
1.0920074 1.0288783 0.89559424 0.9357108 1.0170184 0.86316925 0.99694234 0.9342043
1.0231403 0.89588404 0.9656843 1.1010084 0.92018205 1.0381987 0.9974744 0.8592521
0.91828936 0.7711288 0.94773287 0.974831 0.9902216 0.8993842 0.990784 0.93710184
1.0167809 0.9040908 0.9532088 0.9738665 1.0368161 0.98196065 0.88689184 0.9287154
0.8681431 0.90599465 1.0102909 0.97476184 0.9847773 0.9750373 0.9912955 0.8839089
